{"keras_version": "1.2.0", "config": [{"config": {"name": "convolution2d_1", "nb_filter": 3, "init": "glorot_uniform", "nb_col": 1, "activity_regularizer": null, "subsample": [1, 1], "trainable": true, "W_regularizer": null, "input_dtype": "float32", "b_constraint": null, "activation": "relu", "W_constraint": null, "batch_input_shape": [null, 160, 320, 3], "border_mode": "same", "b_regularizer": null, "dim_ordering": "tf", "nb_row": 1, "bias": true}, "class_name": "Convolution2D"}, {"config": {"name": "batchnormalization_1", "epsilon": 0.001, "gamma_regularizer": null, "momentum": 0.99, "axis": -1, "mode": 0, "trainable": true, "beta_regularizer": null}, "class_name": "BatchNormalization"}, {"config": {"name": "convolution2d_2", "nb_filter": 24, "init": "glorot_uniform", "nb_col": 5, "activity_regularizer": null, "subsample": [2, 2], "trainable": true, "W_regularizer": null, "b_constraint": null, "activation": "relu", "W_constraint": null, "border_mode": "valid", "b_regularizer": null, "dim_ordering": "tf", "nb_row": 5, "bias": true}, "class_name": "Convolution2D"}, {"config": {"name": "batchnormalization_2", "epsilon": 0.001, "gamma_regularizer": null, "momentum": 0.99, "axis": -1, "mode": 0, "trainable": true, "beta_regularizer": null}, "class_name": "BatchNormalization"}, {"config": {"name": "convolution2d_3", "nb_filter": 36, "init": "glorot_uniform", "nb_col": 5, "activity_regularizer": null, "subsample": [2, 2], "trainable": true, "W_regularizer": null, "b_constraint": null, "activation": "relu", "W_constraint": null, "border_mode": "valid", "b_regularizer": null, "dim_ordering": "tf", "nb_row": 5, "bias": true}, "class_name": "Convolution2D"}, {"config": {"name": "batchnormalization_3", "epsilon": 0.001, "gamma_regularizer": null, "momentum": 0.99, "axis": -1, "mode": 0, "trainable": true, "beta_regularizer": null}, "class_name": "BatchNormalization"}, {"config": {"name": "convolution2d_4", "nb_filter": 48, "init": "glorot_uniform", "nb_col": 5, "activity_regularizer": null, "subsample": [2, 2], "trainable": true, "W_regularizer": null, "b_constraint": null, "activation": "relu", "W_constraint": null, "border_mode": "valid", "b_regularizer": null, "dim_ordering": "tf", "nb_row": 5, "bias": true}, "class_name": "Convolution2D"}, {"config": {"name": "batchnormalization_4", "epsilon": 0.001, "gamma_regularizer": null, "momentum": 0.99, "axis": -1, "mode": 0, "trainable": true, "beta_regularizer": null}, "class_name": "BatchNormalization"}, {"config": {"name": "convolution2d_5", "nb_filter": 64, "init": "glorot_uniform", "nb_col": 3, "activity_regularizer": null, "subsample": [1, 1], "trainable": true, "W_regularizer": null, "b_constraint": null, "activation": "relu", "W_constraint": null, "border_mode": "valid", "b_regularizer": null, "dim_ordering": "tf", "nb_row": 3, "bias": true}, "class_name": "Convolution2D"}, {"config": {"name": "batchnormalization_5", "epsilon": 0.001, "gamma_regularizer": null, "momentum": 0.99, "axis": -1, "mode": 0, "trainable": true, "beta_regularizer": null}, "class_name": "BatchNormalization"}, {"config": {"name": "convolution2d_6", "nb_filter": 64, "init": "glorot_uniform", "nb_col": 3, "activity_regularizer": null, "subsample": [1, 1], "trainable": true, "W_regularizer": null, "b_constraint": null, "activation": "relu", "W_constraint": null, "border_mode": "valid", "b_regularizer": null, "dim_ordering": "tf", "nb_row": 3, "bias": true}, "class_name": "Convolution2D"}, {"config": {"name": "batchnormalization_6", "epsilon": 0.001, "gamma_regularizer": null, "momentum": 0.99, "axis": -1, "mode": 0, "trainable": true, "beta_regularizer": null}, "class_name": "BatchNormalization"}, {"config": {"name": "convolution2d_7", "nb_filter": 64, "init": "glorot_uniform", "nb_col": 3, "activity_regularizer": null, "subsample": [1, 1], "trainable": true, "W_regularizer": null, "b_constraint": null, "activation": "relu", "W_constraint": null, "border_mode": "valid", "b_regularizer": null, "dim_ordering": "tf", "nb_row": 3, "bias": true}, "class_name": "Convolution2D"}, {"config": {"name": "batchnormalization_7", "epsilon": 0.001, "gamma_regularizer": null, "momentum": 0.99, "axis": -1, "mode": 0, "trainable": true, "beta_regularizer": null}, "class_name": "BatchNormalization"}, {"config": {"name": "convolution2d_8", "nb_filter": 64, "init": "glorot_uniform", "nb_col": 3, "activity_regularizer": null, "subsample": [1, 1], "trainable": true, "W_regularizer": null, "b_constraint": null, "activation": "relu", "W_constraint": null, "border_mode": "valid", "b_regularizer": null, "dim_ordering": "tf", "nb_row": 3, "bias": true}, "class_name": "Convolution2D"}, {"config": {"name": "batchnormalization_8", "epsilon": 0.001, "gamma_regularizer": null, "momentum": 0.99, "axis": -1, "mode": 0, "trainable": true, "beta_regularizer": null}, "class_name": "BatchNormalization"}, {"config": {"name": "convolution2d_9", "nb_filter": 64, "init": "glorot_uniform", "nb_col": 3, "activity_regularizer": null, "subsample": [1, 1], "trainable": true, "W_regularizer": null, "b_constraint": null, "activation": "relu", "W_constraint": null, "border_mode": "valid", "b_regularizer": null, "dim_ordering": "tf", "nb_row": 3, "bias": true}, "class_name": "Convolution2D"}, {"config": {"name": "batchnormalization_9", "epsilon": 0.001, "gamma_regularizer": null, "momentum": 0.99, "axis": -1, "mode": 0, "trainable": true, "beta_regularizer": null}, "class_name": "BatchNormalization"}, {"config": {"name": "convolution2d_10", "nb_filter": 64, "init": "glorot_uniform", "nb_col": 3, "activity_regularizer": null, "subsample": [1, 1], "trainable": true, "W_regularizer": null, "b_constraint": null, "activation": "relu", "W_constraint": null, "border_mode": "valid", "b_regularizer": null, "dim_ordering": "tf", "nb_row": 3, "bias": true}, "class_name": "Convolution2D"}, {"config": {"name": "batchnormalization_10", "epsilon": 0.001, "gamma_regularizer": null, "momentum": 0.99, "axis": -1, "mode": 0, "trainable": true, "beta_regularizer": null}, "class_name": "BatchNormalization"}, {"config": {"name": "convolution2d_11", "nb_filter": 64, "init": "glorot_uniform", "nb_col": 3, "activity_regularizer": null, "subsample": [1, 1], "trainable": true, "W_regularizer": null, "b_constraint": null, "activation": "relu", "W_constraint": null, "border_mode": "valid", "b_regularizer": null, "dim_ordering": "tf", "nb_row": 3, "bias": true}, "class_name": "Convolution2D"}, {"config": {"name": "batchnormalization_11", "epsilon": 0.001, "gamma_regularizer": null, "momentum": 0.99, "axis": -1, "mode": 0, "trainable": true, "beta_regularizer": null}, "class_name": "BatchNormalization"}, {"config": {"name": "convolution2d_12", "nb_filter": 64, "init": "glorot_uniform", "nb_col": 3, "activity_regularizer": null, "subsample": [1, 1], "trainable": true, "W_regularizer": null, "b_constraint": null, "activation": "relu", "W_constraint": null, "border_mode": "valid", "b_regularizer": null, "dim_ordering": "tf", "nb_row": 3, "bias": true}, "class_name": "Convolution2D"}, {"config": {"name": "batchnormalization_12", "epsilon": 0.001, "gamma_regularizer": null, "momentum": 0.99, "axis": -1, "mode": 0, "trainable": true, "beta_regularizer": null}, "class_name": "BatchNormalization"}, {"config": {"name": "flatten_1", "trainable": true}, "class_name": "Flatten"}, {"config": {"name": "dense_1", "activity_regularizer": null, "init": "glorot_uniform", "input_dim": 1344, "trainable": true, "W_regularizer": null, "b_constraint": null, "output_dim": 256, "activation": "relu", "W_constraint": null, "b_regularizer": null, "bias": true}, "class_name": "Dense"}, {"config": {"name": "dense_2", "activity_regularizer": null, "init": "glorot_uniform", "input_dim": 256, "trainable": true, "W_regularizer": null, "b_constraint": null, "output_dim": 128, "activation": "relu", "W_constraint": null, "b_regularizer": null, "bias": true}, "class_name": "Dense"}, {"config": {"name": "dense_3", "activity_regularizer": null, "init": "glorot_uniform", "input_dim": 128, "trainable": true, "W_regularizer": null, "b_constraint": null, "output_dim": 32, "activation": "relu", "W_constraint": null, "b_regularizer": null, "bias": true}, "class_name": "Dense"}, {"config": {"name": "dense_4", "activity_regularizer": null, "init": "glorot_uniform", "input_dim": 32, "trainable": true, "W_regularizer": null, "b_constraint": null, "output_dim": 1, "activation": "relu", "W_constraint": null, "b_regularizer": null, "bias": true}, "class_name": "Dense"}], "class_name": "Sequential"}